experiment13full/THETA_AC_THUG.npy (npy, 192128 bytes, 1 tensors)

array f8 [10, 4, 6, 5, 20]
0	0x3fe079f743bb4b71	0.5148884127505494
1	0x3fd1401e3153ee36	0.2695384484975166
2	0x3fc251d6a67f7355	0.1431225121476937
3	0x3fb3bea605adafba	0.07712781561502782
4	0x3fa53fe9fe640915	0.041503250411567695
5	0x3f94b946535d8194	0.02023801692792089
6	0x3f8688703d644e34	0.011002423165826426
7	0x3f7edf10c6403999	0.007536950612133352
8	0x3f8099d13f468563	0.008105883353723703
9	0x3f6c0ba2099095e2	0.003423515776847395
10	0x3f490583e3058efe	0.0007635969141514818
11	0xbf5a0ba2a108a517	-0.001589688126964644
12	0xbf754f77db4c91f4	-0.005202739896763554
13	0xbf725be22a6ef0a7	-0.004482158145887072
14	0xbf4579211dc32da7	-0.0006553088856206438
15	0x3f3306bbf4e2167a	0.00029031838210644807
16	0x3f3b62e373c78d2b	0.00041788151773243753
17	0xbf5af3854c1295ef	-0.0016449739198746113
18	0xbf7b8453ed7192f1	-0.00671799453912024
19	0xbf6d397038e81dc0	-0.003567427810825058
20	0x3fdf4d38615d2439	0.4890881491488162
21	0x3fcf73e862a8625f	0.24572472398064613
22	0x3fbfe02699a38940	0.12451401949832519
23	0x3faffba83232f60d	0.062466865661445416
24	0x3fa29b3ece557aed	0.03634067791675997
25	0x3f97a0d09ca7c146	0.023074397622566488
26	0x3f8977bca68b2224	0.012435411293510397
27	0x3f825aa619b83d23	0.008961961421873504
28	0x3f742e1daa9a1530	0.004926792034557523
29	0x3f66466629f593d1	0.0027191157711734322
30	0x3f61bc04bee32129	0.0021648495377101407
31	0xbf5b47753747b492	-0.0016649861037152697
32	0xbf59cd4287a50ed6	-0.0015748166757284985
33	0x3f5ad711b04728f3	0.0016381905307861183
34	0xbf551ce52fa96c15	-0.0012886274477270688
35	0xbf4622da91f2a0ea	-0.0006755416142328028
36	0x3f493e7e7a3022e1	0.000770389324658085
37	0xbf672883b8c9fabd	-0.0028269360248594764
38	0xbf70efe232c5e8ca	-0.004135020816074151
39	0xbf7e811d68d99780	-0.007447352296002907
40	0x3fe918f058ebc6cf	0.7842942940462424
41	0x3fe3b972c41b6f02	0.6163877325265903
42	0x3fdefbd1c3302858	0.4841198354848806
43	0x3fd8698a368d43a3	0.38144164397550123
44	0x3fd323dcfb47b288	0.29906391657895215
45	0x3fcdf7fafce2887b	0.23413026187796845
46	0x3fc7542e9f89fd8b	0.1822565344809671
47	0x3fc208aaf31f344f	0.1408895194166768
48	0x3fbbb633eaa02bc5	0.10824894407430381
49	0x3fb527a9396c50f7	0.0826364293282643
50	0x3fb00094d06dba8d	0.06250887001599832
51	0x3fa841ec6f705205	0.04737795696579287
52	0x3fa1f45a8dbbc16f	0.03506739597458163
53	0x3f9b55419c210db6	0.026692414430966337
54	0x3f9529ccb25fa7f1	0.020667265307487474
55	0x3f90a0392f018501	0.016236203664793617
56	0x3f8f2985de4b0e83	0.015215917440748022
57	0x3f8cf1c790260651	0.014133032881321091
58	0x3f8aa10708a20226	0.013002448035195856
59	0x3f88a931bd92459b	0.012041462514647707
60	0x3fee1f7fcdab13ed	0.9413451210936025
61	0x3fec66dc36f5105f	0.8875561784157177
62	0x3fead115dea9718f	0.8380231236329098
63	0x3fe9581cd1f08682	0.7920059299833186
64	0x3fe7f9c490fbf4c5	0.7492392379496314
65	0x3fe6ae84b2c61cf2	0.7088035098721817
66	0x3fe577eb8cbbd6a2	0.6708886860567029
67	0x3fe45614b4dea507	0.6355079205142439
68	0x3fe34a25512f0111	0.6028009973161109
69	0x3fe24babd4660d77	0.5717372082148547
70	0x3fe15539e69e9f23	0.5416535858430261
71	0x3fe06d12c15064a4	0.5133146072067984
72	0x3fdf1e9cbbe82d7b	0.4862434229878187
73	0x3fdd74bb229ddd3b	0.4602496946385661
74	0x3fdbe6209b06896e	0.4359208597108112
75	0x3fda6f95c5fc7fdf	0.41306061110117115
76	0x3fd90baf79abf633	0.3913382232857174
77	0x3fd7bf564131e4b3	0.37105327955903106
78	0x3fd6857a99d92185	0.35189690613017205
79	0x3fd55c3141b05a34	0.33375197806290946
80	0x3fef599689b61123	0.9796860398933273
81	0x3feec3e809d271bd	0.9614143554531932
82	0x3fee38262eca939c	0.9443541444676273
83	0x3fedb3572992666e	0.9281421482039158
84	0x3fed337582c42dff	0.9125316194562741
85	0x3fecbabe48ff207d	0.8977958131518019
86	0x3fec478845ccdc3c	0.8837319720540857
87	0x3febd7b0d43a0847	0.8700794358303562
88	0x3feb6afe1fb0e664	0.8568106287922999
89	0x3feb00b6fb571426	0.8438372525203064
90	0x3fea9b4e5fd69460	0.831458270248401
91	0x3fea38633b6a7af7	0.8193832550494723
92	0x3fe9d727c6b3a8c2	0.8075140839476023
93	0x3fe974f174f0d34d	0.7955252918241996
94	0x3fe913eb43a389e7	0.7836815186568032
95	0x3fe8b4a86cf67898	0.7720529678515673
96	0x3fe85650e096fb48	0.7605366121787052
97	0x3fe7fa06fc00498e	0.7492709085366174
98	0x3fe79f42d5f80483	0.7381910494879239
99	0x3fe745762544f37e	0.7272291877667241
100	0x3fd60214db799abe	0.3438770430861203
101	0x3fbe8736e100de8e	0.11925070756194087
102	0x3fa6648754b22979	0.04373572262655307
103	0x3f9256d78af15a50	0.017909400802034903
104	0x3f7c343ca5ff8c40	0.006885754497463259
105	0x3f82d70facc704ac	0.009199259243248235
106	0x3f7765b83318a960	0.005712241677921476
107	0x3f573f0e5ce90865	0.0014188423407550884
108	0x3f2ba6494a158399	0.0002109493698681214
109	0x3f606a8fd59617aa	0.0020039376510707268
110	0x3f143b89efb415ad	7.71811427747379e-05
111	0xbf51e3d983204f6e	-0.0010919212477391266
112	0xbf61c3572405277c	-0.0021683408705585588
113	0xbf665e7e27bd3ff4	-0.002730604550301047
114	0x3f60788823610dfa	0.0020105990361416444
115	0xbf4afd2a0b80d123	-0.0008236365602045974
116	0xbf735af37f235121	-0.004725409659119857
117	0xbf5437ba9c8ad294	-0.0012339899423469457
118	0xbf72df2c502884a9	-0.004607365701788138
119	0x3f38be7c90676f2f	0.00037756482234184685
120	0x3fda801ec68da4f2	0.41406983747454185
121	0x3fc6948294ba5324	0.1764071680269349
122	0x3fb303b3990b13bd	0.07427523123176534
123	0x3fa0ecb0beed107a	0.03305580454483077
124	0x3f8bdb891b8b832a	0.013602324631791857
125	0x3f581abd7fce7dba	0.0014712191179809667
126	0x3f5204bfce7e9ab5	0.0010997651206509477
127	0xbf6952a67a6d933d	-0.0030911685493485706
128	0xbf660833fd5201fc	-0.0026894584103163127
129	0xbf4802b15c6b80b6	-0.0007327428837378333
130	0x3f6c920e06cc4337	0.0034876131015909822
131	0xbf485c2764839f63	-0.0007434074732630521
132	0xbf6387dbcd371b35	-0.002384118366282629
133	0xbf3ac3699ea437ac	-0.00040837601285736535
134	0x3f671802256b9a43	0.0028190652768558546
135	0x3f668adfab3cf7fc	0.002751767018621896
136	0xbf56c4db861453f5	-0.0013897079264257848
137	0x3f3f3fbade224f02	0.00047682106208778174
138	0xbf64d73c474a91a3	-0.0025440385164349918
139	0xbf55ea8e2965db1a	-0.001337660627169951
140	0x3fe8f48421cd3730	0.7798481617153126
141	0x3fe36ecc747622a9	0.6072752260816588
142	0x3fde4d99b9a10ce7	0.4734863579544268
143	0x3fd7ae23416a0be6	0.37000352275953075
144	0x3fd256538ce86212	0.2865189434101306
145	0x3fcc733f6f0e55e3	0.2222670833840957
146	0x3fc5b2b38a03da72	0.16951603163734635
147	0x3fc077ec82c9c364	0.12865978609218154
148	0x3fb84e27eefaa588	0.09494256576967619
149	0x3fb23a18d0cd5203	0.07119898889261127
150	0x3faa0012eb0130f0	0.050781813799945286
151	0x3fa11abfedcc5637	0.03340720918474143
152	0x3f97d99a790a280d	0.023291028630900757
153	0x3f90af965322c600	0.016294812034805872
154	0x3f885e8ca13802ac	0.011899088544852297
155	0x3f83426548d243fb	0.009403983387786133
156	0x3f7f61f2a9692930	0.007661769769195012
157	0x3f806e1f64ebf99e	0.008022542254818184
158	0x3f85429a8393756a	0.010380942478543449
159	0x3f826d67f066bc5c	0.008997737907377061
160	0x3fee1382f79368a5	0.9398817859139582
161	0x3fec4efcb181df49	0.8846419779720033
162	0x3feaab70418f2a2d	0.8334275513128141
163	0x3fe92743f3ebf65f	0.7860431446167232
164	0x3fe7b878a5041249	0.7412684653250575
165	0x3fe65d5a89eb0333	0.6988957112990647
166	0x3fe510e4268fb96c	0.6583119156983179
167	0x3fe3d56a13452335	0.6198015571945691
168	0x3fe2b221f39d8872	0.5842447050201953
169	0x3fe19e6cad45918d	0.5505889305318746
170	0x3fe0a0da922c8f8d	0.5196354727709022
171	0x3fdf5f15fa5f56e0	0.49017857981139734
172	0x3fdd95c3479e2cba	0.46226579660351386
173	0x3fdbe8c52356a33b	0.43608215762155894
174	0x3fda4ada7f43df4b	0.4108186953376289
175	0x3fd8c2e73ba1cdb3	0.3868959505409421
176	0x3fd74fb50ccc86af	0.3642399430264999
177	0x3fd5f51479e9543d	0.3430834951917097
178	0x3fd4a8648538c675	0.32277787218035964
179	0x3fd37bb2d864b6ec	0.30442496425790355
180	0x3fef526ba630911f	0.9788110967533931
181	0x3feeb1e77d91b8a9	0.9592168285869508
182	0x3fee1b1de4721b98	0.9408101522284253
183	0x3fed8e0eafd08798	0.923590987575369
184	0x3fed07937918bdd7	0.9071748128098375
185	0x3fec83b360dd7694	0.8910767452141095
186	0x3fec04fdf36503a0	0.8756093744087714
187	0x3feb8bf232bbd7e1	0.8608332625287823
188	0x3feb184d1e2d5bec	0.8467164601705668
189	0x3feaa5bd694efaee	0.8327319199377976
190	0x3fea36258b912472	0.819109699813579
191	0x3fe9c871132e6b5d	0.8057179808268803
192	0x3fe95cb511ef4309	0.7925668096814614
193	0x3fe8f446eca3831b	0.7798189756250368
194	0x3fe88e9f08d4ddc1	0.7674098179331211
195	0x3fe82a4f734af18b	0.7551648380099761
196	0x3fe7c8e1a39b1177	0.7432716556000248
197	0x3fe769df47ae810c	0.7316738510162692
198	0x3fe70d1440f7e770	0.720346571818693
199	0x3fe6b021ede9391c	0.7090005537700423
200	0x3fcc6714b925a5b3	0.22189578094848414
201	0x3fb0f058d121ac6d	0.06616740327597066
202	0x3f95fdefef5238ed	0.021476506216054615
203	0x3f88417de2569278	0.011843665571015224
204	0xbf54789c261f835d	-0.0012494587795048508
205	0xbf4b2bc549752e92	-0.0008291924777181373
206	0xbf0507ae3d7d92b1	-4.011154641040316e-05
207	0x3f7c540bf6e834b3	0.006916090713741929
208	0xbf17b63d5c669c06	-9.045362012348465e-05
209	0x3f39abb1d801b7c3	0.00039170352829997703
210	0x3f3d14f9302e3363	0.0004437549943581613
211	0x3f380b14c5ae683d	0.0003668714249954774
212	0xbf716c7dec2c75d6	-0.004253856549238452
213	0xbf535f7e40be8481	-0.0011824353159471115
214	0x3f4eef4f926d17d1	0.0009440554175419396
215	0xbf7481476422c958	-0.005006102439596503
216	0xbf30ffa909afcd16	-0.00025937916660652546
217	0x3f456ae6ef71def5	0.0006536128629610326
218	0x3f5064e4ff52d6df	0.0010006176283189822
219	0xbf3d7f1832a421ae	-0.00045008030669226983
220	0x3fdc8077f8cca0da	0.4453411035233451
221	0x3fcabcaa2132d5b5	0.20888258572601406
222	0x3fba84ae66e381dc	0.10358705532008322
223	0x3fab020bafd3c36a	0.0527499820835889
224	0x3f9c47df947bce87	0.027617925107689813
225	0x3f8aa8fadcc01127	0.013017616140139921
226	0x3f67a5b557753c08	0.0028866330937158437
227	0x3f412dbe5e57496f	0.0005242518934045879
228	0x3f59ef15096cae63	0.0015828805387156023
229	0x3f67474ad1d53c7f	0.002841611988209147
230	0x3f6f8c3677144992	0.003851038338902054
231	0x3f5fbd3a8e8981a8	0.001937205490456598
232	0x3f536eabdc73f68c	0.001186054070614703
233	0xbf65caa1d0e70b5d	-0.0026600990742919176
234	0xbf76786e2a3ffcd7	-0.0054859450647192975
235	0xbf6c7fecd6cf2152	-0.003478968216288938
236	0xbf4931ffe61a30a9	-0.0007688998704949063
237	0xbf6d31ae7c36170a	-0.0035637290872639936
238	0xbf68bee60d9f1784	-0.0030207150675520284
239	0xbf3de85c8e5de1f6	-0.00045635471030139264
240	0x3fe8f381196b398e	0.7797246452772002
241	0x3fe37c2817bc6b4b	0.608905836448096
242	0x3fde5285266e53f7	0.4737866282751492
243	0x3fd78c8882ea0248	0.36795246872501197
244	0x3fd242478d90c514	0.28529537987476883
245	0x3fcc3657dce4946b	0.22040842328820828
246	0x3fc5da7087adf127	0.17072874665235213
247	0x3fc13bd0d14e2779	0.13463793010697225
248	0x3fbaff50fb3ca280	0.10545831807815809
249	0x3fb530f73e883d9b	0.08277840878166957
250	0x3fb08697648854f7	0.06455370144279358
251	0x3fa95b8a69a8dd77	0.049526524923233
252	0x3fa39b77651b3be2	0.03829548939903994
253	0x3f9e7559a2d24848	0.029744530260878116
254	0x3f94d694c4b0d02a	0.020349812035604632
255	0x3f8d935cc4625475	0.01444122766796794
