experiment13full/THETA_AC_THUG.npy (npy, 192128 bytes, 1 tensors)

array f8 [10, 4, 6, 5, 20]
0	0x3fe0512d1c9158e4	0.5099092061962236
1	0x3fd12276b7943617	0.26772849967605467
2	0x3fc1cf511e49c53a	0.13913930872835484
3	0x3fb2801774878cac	0.07226702303846605
4	0x3fa43ea7e22cafea	0.03954052577896035
5	0x3f9439726fa53e66	0.019750392975139162
6	0x3f88f8295397da8c	0.012192080367623669
7	0x3f844a7e487db9ae	0.009907709681752443
8	0x3f7e93bc10f4e45c	0.007465109475838973
9	0x3f8f041c29847d91	0.015144557969107438
10	0x3f8942cad964e005	0.012334427604045581
11	0x3f8054de328626ce	0.007974372784491559
12	0x3f89a37f9bb5f8bf	0.01251887983266575
13	0x3f91bb351eb30fb3	0.017315702437158808
14	0x3f7d6c4972c24116	0.007183348567324074
15	0x3f552359f59da8e3	0.0012901667127729825
16	0xbf60ec88be3dd81d	-0.0020659132732658973
17	0x3f59b5d2cda0c457	0.0015692289948783433
18	0x3f7602c1d6036875	0.005373723193963999
19	0x3f7311fbed7917bf	0.004655822841931056
20	0x3fdeb3fc136930f1	0.4797353925284958
21	0x3fcdb71227332769	0.2321493808179256
22	0x3fbc9cda2890bfbb	0.11176837435118518
23	0x3faa8babe7b20043	0.05184685900985688
24	0x3f993fa9454c2461	0.02465691075761745
25	0x3f78bf8855d50cf5	0.006042034682937504
26	0xbf77608ede0c99fb	-0.005707319331838874
27	0xbf846029e5e78f5f	-0.009949042633656978
28	0xbf7c0a4b8017540d	-0.006845755503907658
29	0xbf82b34a23ac4c38	-0.00913103028645966
30	0xbf732116ccf833b9	-0.004670228066527332
31	0xbf87fe51212dc5b6	-0.01171553976539284
32	0xbf79bc7e964fb90b	-0.006283277970380983
33	0xbf85757e3ebe418e	-0.010478006639261375
34	0xbf8f5c221a6b26f5	-0.01531244891284043
35	0xbf8f40607d597f89	-0.015259507966390877
36	0xbf79e7f631aef044	-0.006324731536491216
37	0xbf853a21e37a6f4c	-0.010364784960351557
38	0x3f686c1a96cd44eb	0.0029812354390875615
39	0x3f76330de120758b	0.005419782844936614
40	0x3fe9187eee01ab21	0.7842402123036188
41	0x3fe3c79c7eadedcf	0.6181166147429681
42	0x3fdf8f3d5ec447ff	0.4931176591354642
43	0x3fd8fbf162c0e783	0.3903773750677077
44	0x3fd3f1db2777403d	0.311636723080486
45	0x3fcf9dba3fcedf1e	0.2470009624064397
46	0x3fc937cae204543e	0.19701515232068972
47	0x3fc4a4d9a824a146	0.16128082952605832
48	0x3fc1113c473887a0	0.13333848455027653
49	0x3fbbf1fbe686b292	0.10916113260345586
50	0x3fb6d5d736dba0d9	0.08920044984154475
51	0x3fb2d4693d1c248e	0.0735536359972164
52	0x3fb002886f90399e	0.06253864978518783
53	0x3fabbcd00fc9cb5d	0.05417490189292693
54	0x3fa7644a1cc6cb45	0.045687023175011755
55	0x3fa20ec431ee4ae8	0.03526890859133919
56	0x3f9d3f96c7bf2776	0.028562885228701394
57	0x3f992d71910eab87	0.02458741615161444
58	0x3f9678a38c0940f3	0.021944575712326175
59	0x3f92e727004352e6	0.0184599012289536
60	0x3fee2a8b56e2165f	0.9426933953224753
61	0x3fec7e8da2fa43d6	0.8904483969837382
62	0x3feaf2ce88302ff9	0.8421394977499396
63	0x3fe97a2ef8242395	0.7961649748332201
64	0x3fe8166b6528034c	0.7527367568692198
65	0x3fe6c4759c62dec3	0.7114818624895282
66	0x3fe585961164cc86	0.6725569095346067
67	0x3fe46008c4442af8	0.6367229302717012
68	0x3fe34a9f9d45877d	0.6028593131743346
69	0x3fe24800663edba5	0.5712892529471573
70	0x3fe15cb48b7f66a0	0.5425665592731157
71	0x3fe08273bff88ca1	0.5159243344718513
72	0x3fdf3f8416c01570	0.4882517072840846
73	0x3fdd8258219f292b	0.46108058246012956
74	0x3fdbec8b59fca278	0.43631252086428374
75	0x3fda74fddb51a77d	0.41339060228221297
76	0x3fd92b541146c3af	0.39326955496931765
77	0x3fd7e46795c628b0	0.3733157122266091
78	0x3fd6b2de4458d4e6	0.3546672503901632
79	0x3fd5921c41a710de	0.33704286967646435
80	0x3fef4bbaa3f09749	0.9779942705106147
81	0x3feea759ff441940	0.9579286561645759
82	0x3fee0c93acafa2dd	0.939035260465143
83	0x3fed772f2476ab7f	0.9207988464525981
84	0x3fecec2257f5cc8f	0.9038249700519304
85	0x3fec6450a396e733	0.8872454829317803
86	0x3febe576dfab5b67	0.8717607849638228
87	0x3feb689041338f3d	0.8565140984978609
88	0x3feaf2096222ef07	0.8420454899528246
89	0x3fea800f5c4c7b38	0.8281323244772016
90	0x3fea0c53f762f18e	0.814004882027392
91	0x3fe996d1ab33214f	0.7996605247254055
92	0x3fe920c0c8429e87	0.7852481757481237
93	0x3fe8af52de55b9b5	0.7714018194654303
94	0x3fe83c359fa447d4	0.757349788475262
95	0x3fe7ce5fb6bd57e8	0.7439421242841009
96	0x3fe76488e5f8e15d	0.7310223094600975
97	0x3fe6fc3697a0dc30	0.7182877503863718
98	0x3fe696e4bddce5bb	0.7059196193942435
99	0x3fe63405d9e9f9be	0.6938504463321846
100	0x3fd685a895f4ab94	0.3519078697597078
101	0x3fc10aab090cdd5a	0.13313806478411544
102	0x3fa95d9247a03f6f	0.04954201816883496
103	0x3f93bc99544fa1f0	0.019274135371150025
104	0x3f80bb5fbeb73bd5	0.008169887550051694
105	0x3f5d625deccce9e3	0.0017934720264763885
106	0xbf6020da8cb68315	-0.0019687908695264025
107	0xbf74a6fe8b79ebc3	-0.005042070689905867
108	0xbf8013b409e4b64f	-0.007850081016466918
109	0x3f81d866e5a42186	0.00871353519734509
110	0x3f879d090c8474cc	0.011529989904881431
111	0xbf70e8112d95719a	-0.004127566434672403
112	0xbf8bbfd5ee54e9e3	-0.013549491248899542
113	0xbf8445d900964feb	-0.009898848848742111
114	0xbf87e053b1c8c040	-0.01165833841614028
115	0xbf82e8e98606645e	-0.009233307268731557
116	0x3f4a053dca3e6502	0.0007940818509154792
117	0x3f7c67e542199a45	0.006935020007949937
118	0x3f643da7b319e91f	0.0024708056815231495
119	0x3f5d2ef3ea4d6c0c	0.001781213949661578
120	0x3fd97fdb1a8b75d4	0.3984287032343137
121	0x3fc4959518b96e80	0.16081489283793715
122	0x3fb1335fb52ef18f	0.06719015286848261
123	0x3fa1efd478328834	0.035032882378132874
124	0x3f9d3ae78f1da287	0.02854501544007573
125	0x3f90d517f7e7c68b	0.01643788767427749
126	0x3f67e1e056e628ff	0.0029153234128830303
127	0x3f7f1de5502633f7	0.007596870187978936
128	0x3f7bf8602412daf5	0.00682866625827815
129	0x3f7ff449ac847372	0.007801330364853297
130	0xbf6371bc3d064b18	-0.0023735691576772903
131	0x3f6b1f3599fea762	0.0033107802300564185
132	0x3f87802375811656	0.011474873565144577
133	0x3f673ce9f3f9db55	0.002836663188471015
134	0xbf6a1b0fa90edfb7	-0.003186731898008301
135	0xbf846261dbf6850c	-0.009953274274098443
136	0xbf7954a918e0a40a	-0.00618425420365388
137	0x3f5332cb62d7ca4d	0.0011717783157762119
138	0xbf72fc5bc79649ea	-0.0046351990835255905
139	0xbf7bee566b34cb53	-0.0068190932973262895
140	0x3fe90862f57552e0	0.782273749743208
141	0x3fe3c311a50cef0e	0.6175621245997449
142	0x3fdf333e6207a118	0.48750266621802174
143	0x3fd8aa43a1b6e738	0.3853921012156323
144	0x3fd3a6e1fe78c63b	0.3070607171131063
145	0x3fcf0004c98f4622	0.24218807069569076
146	0x3fc839dad59dbe13	0.18926558905103316
147	0x3fc313ffdce50536	0.14904783521527926
148	0x3fbefa9274d8aae7	0.1210109267491749
149	0x3fb9355e5c0c3247	0.09847059008843316
150	0x3fb48eb76451ba77	0.08030267905426479
151	0x3fb093833c256a48	0.06475086420452059
152	0x3faa1f44c4cf948b	0.05101981070019076
153	0x3fa30f058e45232f	0.037223981491996454
154	0x3f9e140ca1e63790	0.029373357183025528
155	0x3f9d79e839eec43d	0.0287853513106635
156	0x3f97c59a821012fa	0.02321473521080273
157	0x3f917a5d5b2cdaad	0.017068346681493086
158	0x3f85e1c49a941d44	0.010684524505008348
159	0x3f82e0db0ace9eba	0.009217940585429008
160	0x3fee21a70f5b0a8d	0.9416079807200092
161	0x3fec6c2ada0d5850	0.8882040270643845
162	0x3feacbb5cfc2ae7e	0.8373669679471758
163	0x3fe955148162afb2	0.7916357543049257
164	0x3fe7fce26a63da81	0.7496196821146698
165	0x3fe6c77c8aa44e18	0.7118513782356244
166	0x3fe59d46bae8ee98	0.6754487658103754
167	0x3fe47ca62ec5c44d	0.6402159608388814
168	0x3fe36b51889dcd9d	0.606850401715224
169	0x3fe26c8c40538152	0.575750470769018
170	0x3fe1769a1f4eaeb2	0.5457277881118527
171	0x3fe08b2aa355171d	0.5169881048284172
172	0x3fdf4824fa296201	0.48877834730004116
173	0x3fdd9c7a9f81e1b1	0.4626757199944463
174	0x3fdc0d8940603438	0.43832618033121973
175	0x3fdab598229a84f6	0.4173336351323792
176	0x3fd980c816b29e87	0.39848520485473
177	0x3fd86ae55226654d	0.38152440092524814
178	0x3fd747ef6060edc1	0.3637655678937471
179	0x3fd635f65d34d761	0.34704360105694404
180	0x3fef47da62cd4670	0.9775211267207862
181	0x3feea0f123508826	0.9571462335336534
182	0x3fee06161b480d2a	0.9382429631081426
183	0x3fed76852a67f26d	0.9207177952044511
184	0x3fecef89ba426e14	0.9042404783135134
185	0x3fec6deaee37a8d8	0.8884176876720415
186	0x3febf078fb34e7d6	0.8731045633678558
187	0x3feb7576a363682e	0.8580887976816081
188	0x3feaff05c102c2c4	0.8436306733838923
189	0x3fea926faabc2eb6	0.8303755125684436
190	0x3fea24640f791290	0.816942243786416
191	0x3fe9bb30fc2f8ed5	0.8041005063537009
192	0x3fe955e0985a1bb3	0.7917330718636236
193	0x3fe8efbe7eb6d713	0.7792656397711845
194	0x3fe88c45856e0c6b	0.7671229940464291
195	0x3fe828f51dd2a63b	0.7549996931531447
196	0x3fe7c7c09f846f78	0.7431338420460483
197	0x3fe769b150a625a5	0.7316519332099928
198	0x3fe70d29c16ce6fc	0.7203568246688685
199	0x3fe6b35ed1267022	0.7093957982028807
200	0x3fccfc9b91d3ade4	0.22645897503330936
201	0x3faccd6373294e2f	0.056254489715368165
202	0x3f8f76e39c39b360	0.015363481717224736
203	0x3f7248b0553b7801	0.004463852692166982
204	0xbf87cc233165d352	-0.01161983007907855
205	0xbf687e93157df324	-0.0029900429471453483
206	0xbf858ba23bc6d356	-0.010520236443747482
207	0xbf899d398d11b0e3	-0.012506913774096911
208	0xbf7c7163d84adfa8	-0.006944074648963218
209	0x3f62ba35f6ead769	0.002286057853178859
210	0x3f75397adc47c5a8	0.00518177025195269
211	0x3f5399f615c79fbb	0.0011963751959402763
212	0x3f7736a98d80bed4	0.005667364421284755
213	0xbf4a485e1f486ea4	-0.0008020839291619964
214	0xbf7139a5f00ecea5	-0.0042053682272357494
215	0xbf92a703d60c53e5	-0.01821523660608539
216	0xbf8ade2e18f42468	-0.01311908734943952
217	0xbf845d2bf3287d71	-0.009943335874651212
218	0xbf8540ef842d654b	-0.010377761098129176
219	0xbf77562a1e0e57eb	-0.005697407265776259
220	0x3fdc0d1c57a7bce5	0.43830021438675565
221	0x3fca3cba1cecce4d	0.20497824108461984
222	0x3fb704b1e5c36623	0.08991538867430697
223	0x3fa46ab1a4da0648	0.03987651002263398
224	0x3f8c9c4ee7afd3c6	0.013970009274979388
225	0x3f55f9e39d234bee	0.0013413164893349943
226	0xbf48d499fcd7643d	-0.0007577659504775025
227	0xbf87cff4817207c4	-0.011627111626015714
228	0x3f4d656f24b75749	0.0008971016590588544
229	0x3f8a2a5d2a6ccd03	0.01277611528130374
230	0x3f853988dbc0060f	0.010363644796600928
231	0x3f904f387627468c	0.01592720242644545
232	0x3f83165ae7c89fec	0.00931998271796882
233	0x3f317d88ba46a4e1	0.0002668818290439534
234	0x3f7e1650c21a9d86	0.007345500432769275
235	0x3f712d6c1780de66	0.004193708642609905
236	0xbf80999adfe769bd	-0.008105478246695047
237	0xbf692466346a4a30	-0.0030691143213712677
238	0xbf8495af7cf5c182	-0.01005112743470771
239	0xbf883e4f7e0c750a	-0.011837597879600387
240	0x3fe8da75a63816f8	0.776667427679711
241	0x3fe36ccd650d0395	0.607031533589281
242	0x3fde59f82260ac1e	0.4742412887305266
243	0x3fd7f3bbd56f3383	0.37425132601929806
244	0x3fd2ffe7820d0665	0.29686916065484176
245	0x3fce371d29a167ac	0.23605694325197868
246	0x3fc7784c54a43bfd	0.1833587086952945
247	0x3fc18ca5b78f7155	0.1371047159472122
248	0x3fb8edcdb8b4dc58	0.09737859496532175
249	0x3fb0d08ad857f6d3	0.06568210393740097
250	0x3fa6e0f3929df219	0.04468499340780258
251	0x3f9b0d2af9b31030	0.0264174189476451
252	0x3f900ee4bd238345	0.01568181423579353
253	0x3f8281e4e95b28a7	0.009036815997564963
254	0x3f6724bcde853ccc	0.0028251351215327954
255	0x3f35e796a2d21ba3	0.0003342383159367584
